model/keypoint_classifier/keypoint_classifier.tflite (tflite, 6720 bytes, 6 tensors)

sequential/dense/BiasAdd/ReadVariableOp f4 [20]
000000 08 da 01 bf b0 d1 37 be 23 09 15 3e 9e 2b 30 3e
       -0.50723314 -0.17951083 0.14554267 0.17204139
000010 e5 8c 78 be 00 3e 52 be 37 93 62 be 15 8d ef be
       -0.24272497 -0.20531464 -0.2212647 -0.46787325
000020 84 ab 12 bf cd 3f 1a bf c8 be 44 bf 56 7d 65 be
       -0.5729296 -0.602536 -0.7685361 -0.22411093
000030 d6 38 b5 be 40 a0 bc be 53 80 2c be 41 79 1a bf
       -0.35394925 -0.3684101 -0.16845827 -0.6034127
000040 d4 33 1b be e9 1f 3e bf 95 bf d6 be 40 2f 3d bf
       -0.1515649 -0.7426744 -0.4194304 -0.7390022

sequential/dense_2/BiasAdd/ReadVariableOp f4 [8]
000000 12 84 c0 be 0f ba ee 3e 78 43 45 3f 37 50 8f 3d
       -0.37600762 0.46626326 0.77056074 0.06997722
000010 3b 99 e2 bd 69 34 09 bf 4b cb 01 bf 58 62 1b bf
       -0.11064383 -0.53595597 -0.50700825 -0.60696936

sequential/dense_1/BiasAdd/ReadVariableOp f4 [10]
000000 eb 33 49 be 29 15 20 3f 14 f0 34 3f 25 22 ab bd
       -0.19648711 0.6253229 0.7067883 -0.08356122
000010 1b 2f 6c 3f 3b 49 27 3e 66 e0 b0 3e ff 14 e0 3d
       0.9225938 0.16336529 0.34546202 0.10941505
000020 b6 95 2f 3e 65 e9 3b 3e
       0.17146954 0.18350752

sequential/dense/MatMul f4 [20, 42]
000000 b6 7e 00 3e a6 88 88 3e ae 10 18 3f 42 1d b3 3d
       0.12548336 0.26666754 0.5940045 0.08745815
000010 ca 8c 14 bd f4 cd f5 3e 6f ef a2 bd 99 e5 3e 3f
       -0.03626708 0.48008692 -0.079558246 0.7456909
000020 47 f7 04 3e 94 2e 74 3f fb 00 67 3e 33 e0 54 3e
       0.12984954 0.9538357 0.22558968 0.2078865
000030 03 e4 8b 3d 72 01 a7 3e 82 69 60 3e 29 2c b4 3e
       0.06830599 0.3261829 0.21915248 0.35189942
000040 0b 5f 4d 3c b1 21 19 3e 24 df 8c 3e 01 26 cf 3e
       0.012534867 0.14954259 0.27513993 0.40458682
000050 3c 78 87 3b 6e ad 62 3e b7 cb 77 bd f0 4f c9 3e
       0.004134206 0.2213647 -0.060497012 0.393188
000060 27 3a 3e 3b 77 a0 86 3e 1c 82 10 3e 4e 13 fc 3e
       0.002902636 0.262943 0.14112133 0.49233478
000070 4d 10 7d 3d b7 c1 b4 3e 4d d0 83 3b b5 bb 21 bd
       0.061783124 0.35304043 0.004022634 -0.039485652
000080 f1 4b 1a 3d 9d ec 00 be 1c b3 f0 3d 30 be ce 3e
       0.03767008 -0.12590261 0.117529124 0.40379477
000090 5a 47 7c 3e 71 5c 4e 3e c7 77 75 3c 57 aa 1f be
       0.24636593 0.20152451 0.01498217 -0.15592323
0000a0 07 8e 5f 3e aa 91 cc be aa 07 86 3e 10 fe 9a 3d
       0.21831523 -0.39954883 0.26177722 0.0756799
0000b0 f8 e2 98 3e 56 e3 d3 be 24 92 bd 3e e7 a7 94 bd
       0.29860663 -0.4138438 0.3702556 -0.07258587
0000c0 ec b6 ee 3e 99 d8 b2 be b0 c4 f5 3e 5f ff 1d bf
       0.46623933 -0.34930876 0.48001623 -0.6171779
0000d0 4b 67 76 3e 9a 2f f8 3d 08 a7 20 3e 19 f4 80 3d
       0.2406284 0.12118454 0.15688717 0.06296558
0000e0 1a 77 f7 3c ca d1 de 3b d2 3e 0b bd 54 8c a3 bd
       0.03020816 0.006799911 -0.033995457 -0.0798575
0000f0 0c 64 2e 3e a4 05 45 3e 87 f6 86 3d 48 93 9a 3d
       0.17030352 0.19240433 0.0658999 0.07547623
000100 f1 fa b7 bd 1c 68 7d bd a8 b0 3e be 41 12 3e be
       -0.0898341 -0.061866865 -0.18622077 -0.18561651
000110 2a 12 75 3e 26 c8 8d 3e c1 c9 24 3d 75 54 4d 3e
       0.2393271 0.27691764 0.04023147 0.20051749
000120 62 c5 bc bd 9c 26 22 3e 47 3d 52 be 13 c6 fe 3d
       -0.09217335 0.15835041 -0.20531188 0.124401234
000130 6c 84 77 3e 01 51 e0 3e a2 14 41 bd 31 0d bc 3e
       0.24171609 0.438118 -0.047138818 0.36728814
000140 cb 4a cd be 7a f7 ea 3e 9b 14 36 bf 29 d9 92 3e
       -0.40096125 0.45891935 -0.7112519 0.28681305
000150 64 bd 83 3e 1e 00 77 be ab f0 6e bf dd 3f 1e 3f
       0.2573043 -0.24121138 -0.9333598 0.618162
000160 c7 6e cc be bc 1e e3 3e 3e 5b a0 bd 24 a7 a4 3e
       -0.39928266 0.44359386 -0.07829903 0.32158768
000170 53 2e 18 3e 9c 84 5c 3e c0 0b 17 3d fc 0b 05 3e
       0.14861421 0.21534961 0.03687644 0.12992853
000180 dc 61 57 bd 95 d6 10 bd 40 bb 23 bd 11 1c fe bd
       -0.05258356 -0.03536089 -0.039973497 -0.12407697
000190 04 d5 05 bc 85 57 75 bd 82 10 79 3e 70 c3 8a bb
       -0.008168463 -0.05989792 0.24322703 -0.0042347237
0001a0 f3 a1 ab bc 0f 0b ad bc 63 69 e8 3b 5e d1 02 3e
       -0.020951247 -0.021123437 0.007092641 0.1277518
0001b0 e6 f8 7d 3d ae 91 dc 3d 00 d5 cd 3e f1 a8 17 be
       0.062004946 0.10769974 0.4020157 -0.1481054
0001c0 4a 35 07 3d 44 de 27 be b2 40 0b 3e 63 60 3b be
       0.033009805 -0.16393381 0.13598898 -0.18298487
0001d0 cb 65 46 3e 3f ef 6a be 09 be 71 3e 02 3c f6 be
       0.19374768 -0.22942828 0.23607649 -0.48092657
0001e0 10 4d 20 be 77 c3 67 bd af 40 0b be d9 e0 ae 3e
       -0.15654397 -0.056582894 -0.13598894 0.3415592
0001f0 c6 c0 14 be d7 05 fe 3e 02 f2 9f bd 88 dc 65 3e
       -0.14526662 0.4961383 -0.07809831 0.22447407
000200 27 40 32 3f 1d f2 f6 3e 71 9b 66 3c 89 1b 02 3e
       0.6962914 0.48231593 0.014075146 0.12705816
000210 ee b0 ca be 20 3b ea 3d 13 26 c2 be 33 e3 41 3e
       -0.39588112 0.114370584 -0.37919673 0.18934326
000220 bc 1a 4f 3f bd fa 2c 3d f1 80 9e bd b3 6e 13 3d
       0.8090017 0.04223131 -0.07739437 0.035994243
000230 7e ae 07 3e 9d 54 5b bc 9d b0 66 3e be 16 dd bd
       0.13250157 -0.013386873 0.2252831 -0.10795353
000240 c3 68 2e 3f 76 42 99 3d c4 c8 0e be 59 74 23 bd
       0.68128604 0.074833795 -0.13943774 -0.03990588
000250 1d 36 9e 3d 04 df ed be 65 a5 76 3e 1a 17 43 bf
       0.07725165 -0.4645921 0.2408653 -0.76207125
000260 f2 46 90 3e f4 54 cd 3c 83 a5 56 be 6c ec 3e 3e
       0.28179127 0.025064923 -0.20961575 0.18644875
000270 b7 bd 21 bd 54 0c b0 3e 87 75 f5 3d 37 58 c8 3e
       -0.039487567 0.34384406 0.11985307 0.39129803
000280 29 67 3d be 48 22 a1 bb bb fa 92 be 87 04 61 3e
       -0.18496384 -0.0049174167 -0.28706917 0.21974383
000290 1b 44 0d be 6f 26 f6 3e 31 57 8c bd 15 e5 0c 3f
       -0.13795511 0.48076198 -0.06852568 0.5503705
0002a0 a0 93 d5 3c 54 d9 57 3e dc f8 de bf 6e 2c 38 bf
       0.02607137 0.21078998 -1.7419696 -0.71942794
0002b0 70 68 07 bf 95 98 d1 be 68 a5 83 bc 50 f9 8e be
       -0.52893734 -0.40936723 -0.016070083 -0.27924585
0002c0 c3 0f 4d 3e 62 ed 3c 3d 1a d6 60 bf 5b 0e 52 be
       0.20025544 0.046124823 -0.87826693 -0.20513289
0002d0 30 2c 9c 3e d2 aa 21 be 63 c3 33 bd 8e 57 1d 3e
       0.30502462 -0.15787819 -0.043887507 0.1536543
0002e0 63 db 97 be 03 78 6b 3e 12 8c b1 be 77 1b 27 be
       -0.29659566 0.22995 -0.34677178 -0.16319071
0002f0 4a d1 3b 3e a2 1f 82 be a8 eb 82 3d 04 54 a2 be
       0.18341556 -0.2541476 0.06392604 -0.31704724
000300 18 3c 94 be c6 f2 33 be 09 f4 11 be 99 0c 80 bd
       -0.28952098 -0.1757308 -0.14253248 -0.06252403
000310 f4 ba 92 3e 46 24 ae be 91 16 75 bd 3e d5 d2 be
       0.2865826 -0.3401205 -0.059835974 -0.41178316
000320 db f9 ca be 1c ee 4a be 0d 7b 37 3d ae 27 97 3d
       -0.3964375 -0.19817394 0.044795085 0.07380615
000330 89 e1 ba 3a 4d 24 b6 be a5 38 1b be f7 25 04 3e
       0.0014257889 -0.3557457 -0.15158327 0.12905107
000340 fc 8e a2 be 18 54 d6 3e e4 19 e2 3d 0b 36 9c be
       -0.31749713 0.41861033 0.110400945 -0.30509982
000350 ed e2 e5 3d cc 66 ad 3e 9c e4 8c bd 55 76 5b 3e
       0.11224923 0.3386749 -0.06879541 0.21431859
000360 21 2e 5e bd 6b 37 2b 3e e8 61 1a bb b9 82 24 3e
       -0.05424321 0.16720359 -0.0023556892 0.16065492
000370 12 bb bd 3d 60 dd 94 3d d2 e2 a0 bc fe 63 1f 3d
       0.092641965 0.072687864 -0.019639406 0.03891372
000380 dc 53 09 ba 69 af 4c 3c c7 ac 0c 3c 01 b0 96 bf
       -0.0005238631 0.012492993 0.008586115 -1.1772462
000390 bc c0 f1 3d 74 98 cd 3c 51 d3 eb 3c 9f db 29 3e
       0.11804339 0.02509711 0.028787287 0.16587685
0003a0 33 28 99 3c 38 e2 48 3e 5d 7e 8e 3c 09 09 52 3e
       0.018695926 0.19617546 0.01739424 0.20511259
0003b0 64 b5 54 3d 95 6b 5b 3c 9a 67 2b 3b e4 68 2d 3e
       0.0519308 0.013392349 0.002615428 0.16934544
0003c0 17 3a ea bb 34 b3 42 3e 8d 0c e8 3c 60 96 41 3e
       -0.007148038 0.19013673 0.028326297 0.1890502
0003d0 62 a6 6e 3d 27 86 40 be e8 e7 cc bc 31 5d ce 3c
       0.058264144 -0.18801175 -0.025012925 0.025190922
0003e0 09 59 6c 3c 8f ab c8 3d 77 29 10 3d 2f 5d d0 3d
       0.0144255245 0.09798347 0.035195794 0.10174023
0003f0 43 e7 82 be e0 ac a3 bc de 90 36 bf 5e 1a 02 3e
       -0.25567064 -0.019979894 -0.713148 0.12705371

sequential/dense_1/MatMul f4 [10, 20]
000000 d9 ad 0b bf f0 2a 2d 3f 87 06 95 3e f5 e7 93 be
       -0.54562145 0.6764364 0.29106542 -0.28887907
000010 d2 1f c4 3d 21 6f 68 bf 2e 16 35 3e 63 99 57 3f
       0.09576382 -0.9079457 0.17684242 0.84218425
000020 40 09 1e 3e 63 d3 38 3e 53 ab 4c 3f 38 4c aa 3e
       0.15433216 0.18049388 0.7994892 0.33261275
000030 0b fc b8 3e 08 ac 73 3e 82 45 11 bf 64 ff ee be
       0.36129794 0.23796093 -0.56746686 -0.46679223
000040 78 ef 7b 3e 38 b8 9f 3d c9 11 75 be ba 24 af 3e
       0.24603069 0.07798809 -0.23932566 0.34207708
000050 fc b4 41 3f cb d3 8c 3e 97 2d 5f 3d 65 63 15 3f
       0.75666785 0.27505335 0.054486837 0.5835479
000060 64 ef df 3d 85 3d c0 bd 2b fa 53 3e 38 ba c5 be
       0.10934332 -0.09386734 0.207009 -0.38618636
000070 f6 04 4a bf 7a c8 22 bf 16 7e 6f bf 25 61 86 3e
       -0.7891382 -0.6358715 -0.93551767 0.2624599
000080 e2 5c 17 bf 88 60 73 be 26 68 00 3f 3c 66 98 3f
       -0.591261 -0.23767292 0.5015892 1.19062
000090 74 7f 1a 3f 41 cf 28 be 2e e1 d9 bc b8 7a 76 be
       0.6035073 -0.16485311 -0.026596632 -0.24070251
0000a0 e1 06 32 be 34 39 0e 3e f0 4a 1b 3f 00 07 da 3e
       -0.17385437 0.13889009 0.6066122 0.42583466
0000b0 c4 65 2d 3f 4e f5 f3 3d c3 12 15 3f 7a 30 d0 3d
       0.6773341 0.119120225 0.58231753 0.10165496
0000c0 3f 60 57 3d b5 10 79 bf 2f 0c 83 bf a6 d0 e5 3e
       0.05258202 -0.9729112 -1.0238093 0.4488575
0000d0 cd f2 12 3f dd 14 6e 3e 80 96 d3 3e 90 ce 23 be
       0.57401735 0.23250146 0.4132576 -0.15996766
0000e0 eb 33 08 3f d5 35 ac 3e 1a c4 fc 3e aa 9b 8e 3e
       0.5320422 0.3363482 0.49368364 0.27853137
0000f0 65 ac 15 3e dd 8b 2d 3f db ba 5d be 18 ca 8e be
       0.14616545 0.6779154 -0.21653311 -0.2788856
000100 d8 6f 6b 3d fa 82 20 bf 33 b1 8f bc 7c 9f a2 bf
       0.05747971 -0.62699854 -0.01754055 -1.2704921
000110 d9 53 9f 3e 4b 6e 18 3f 19 69 7a 3f 9d 9f 84 3e
       0.31118658 0.59543294 0.97816616 0.25903025
000120 c1 16 23 3e c7 c2 a5 be e0 15 a3 3e b0 1f 87 3e
       0.15926649 -0.32375166 0.31852627 0.26391363
000130 0e e9 08 3f 9c 56 4b bf cd c9 c7 3e 3f 73 dc be
       0.53480613 -0.7942903 0.3902115 -0.43056676
000140 db 04 30 be e8 1b 0b bd b5 d5 0b 3f ea 5a 21 3e
       -0.17189352 -0.03396216 0.54622966 0.15757337
000150 62 7a 0e bd 4a f0 c9 3f 55 21 dd 3e 27 d5 35 3e
       -0.034784682 1.5776455 0.43189493 0.17757092
000160 b8 16 57 bf b1 65 25 be 36 ef 0b be be 54 d5 be
       -0.8401904 -0.16152073 -0.1366547 -0.41666216
000170 61 79 95 be 74 7f 1b bf 46 c6 89 be 6f 8e 31 3e
       -0.29194167 -0.60741353 -0.26909083 0.1733949
000180 17 95 5c be ab 1d a0 be 90 a4 3c be 7a 4f 16 bd
       -0.21541248 -0.31272635 -0.1842215 -0.03669689
000190 df fb f2 3c 1f b7 ad bd 2e af a9 be 4e 4e 08 3d
       0.029661117 -0.08482193 -0.33141464 0.033277802
0001a0 8d 04 7f be e4 4d 3f 3d 2e bd 1e bf 44 1d bd be
       -0.2490408 0.04670514 -0.62007415 -0.3693639
0001b0 ab 1b 99 be 51 60 08 bf 37 1c 6b 3d 6c c5 d8 3e
       -0.2990392 -0.5327197 0.057399955 0.4233812
0001c0 ed f6 c3 bd 0e e8 18 be 38 c9 eb be d4 05 07 bf
       -0.09568582 -0.14932272 -0.46051955 -0.5274327
0001d0 e5 21 9b be c1 3b 37 be ca 5e d3 3e 8c 13 b3 bd
       -0.30299297 -0.17893888 0.41283256 -0.08743963
0001e0 4a 0c 06 3f 65 f5 25 3f bb 8e fd bd 12 07 34 3f
       0.523625 0.6482757 -0.12380739 0.7032329
0001f0 82 ac aa 3e bf d4 d8 be 82 1a 00 3f fd fc 6d 3e
       0.33334738 -0.42349812 0.5004045 0.23241039
000200 66 3d 87 bd 69 fb 07 3f 86 ee 17 3f cc 34 ab 3d
       -0.06603508 0.53117996 0.5934833 0.083596796
000210 9d 20 97 3e 9d 5b c0 3e 2a 62 b9 be ae 96 a0 3e
       0.2951707 0.37569895 -0.36207706 0.3136496
000220 76 4e 25 3e 37 41 1e 3f f6 9d 86 3e a3 26 45 3f
       0.16143212 0.6181826 0.2629239 0.7701208
000230 30 ff 63 bd 06 6c 4b bf e8 e9 37 3f 42 0e f1 3e
       -0.055663288 -0.79461706 0.7184129 0.4708119
000240 0a 2a 60 bf df bf c5 be 0b 3e 68 3e 5f f0 85 3d
       -0.87564147 -0.3862295 0.22679918 0.06539988
000250 88 b4 8a 3e c3 90 d4 be 50 15 ee be a9 d7 c1 3c
       0.2709086 -0.41516694 -0.46500635 0.023662405
000260 03 35 4f bc e5 f0 19 bf cb c5 6c 3e 2e ac 1d 3f
       -0.012646916 -0.601332 0.23122327 0.6159085
000270 05 01 1e 3e e7 c6 ad bc 1c f7 0c be 0f 28 3f bd
       0.15430076 -0.021213008 -0.1376614 -0.046669062
000280 4b 88 e3 be 0e f9 8b 3d ec 5c 79 3b 0a 89 87 bd
       -0.4443992 0.06834613 0.003804977 -0.06617935
000290 06 e0 06 3e 38 12 0d bf 0d 9f 5b 3e 3e a9 fe 3e
       0.13171396 -0.55105925 0.21447392 0.49738497
0002a0 70 82 7e 3f 64 bd ca 3f a7 0e 80 3f 18 e4 ed 3e
       0.9941778 1.5839047 1.0004472 0.46463084
0002b0 1f 8c 46 3f a6 ba 19 3f 6f ef d2 3e bc 77 18 bf
       0.7755756 0.6005043 0.41198298 -0.595577
0002c0 8f a7 e2 3e 67 ba e8 3e e6 ad 8e 3f 9a c4 3b bf
       0.44268462 0.45454714 1.114682 -0.73346865
0002d0 fc 9d 7f bf 83 1a 6d 3e d7 51 1d bd ce 5e a7 3e
       -0.9985044 0.23154645 -0.038408127 0.32689518
0002e0 d2 31 e2 be 0a 8e 60 be 84 51 a9 3d 21 8c ca be
       -0.44178635 -0.21929184 0.08267501 -0.39560035
0002f0 91 26 86 3f 81 cf d3 3e 44 db 54 be c2 d7 12 bf
       1.048052 0.4136925 -0.20786768 -0.5736047
000300 39 0e b0 3e db 58 df bb b5 cd 01 3e eb da 10 bf
       0.3438585 -0.0068160123 0.12676127 -0.5658404
000310 96 b6 cc 3e 5b 75 70 3e 29 6c 5b be 8d 9d 1f 3f
       0.39983052 0.23482268 -0.21427979 0.6234978

sequential/dense_2/MatMul f4 [8, 10]
000000 f9 c3 62 3f 1d c6 61 bf e8 b0 0d be ff 17 8b 3f
       0.8858028 -0.8819292 -0.13837016 1.0866698
000010 59 6e 60 be 9b e6 85 be 6c 5d 13 3f a2 21 44 be
       -0.21917094 -0.261525 0.57564425 -0.19153455
000020 05 02 ce 3e 70 8e b7 be 25 4c 39 bf 2a 64 a9 be
       0.40235916 -0.3585086 -0.7238181 -0.33084232
000030 89 c0 0b 3f 99 82 11 3f b1 96 9e 3f 87 92 53 be
       0.5459066 0.568399 1.2389737 -0.20661364
000040 72 76 22 bf 0d 78 ef be 3f 71 3e bf fe 4d 94 bf
       -0.63461983 -0.4677128 -0.7439155 -1.1586301
000050 3b 67 73 bf b6 c4 54 3f eb 76 1b 3d 8b ac 4b bf
       -0.9507939 0.8311266 0.037955206 -0.79560155
000060 94 5b c2 3e 3c 00 e8 be 0b 38 2e 3f dc ad 83 be
       0.37960494 -0.4531268 0.68054265 -0.25718582
000070 2e 3a 6d bf e5 73 93 be f5 04 1e bd c0 fb a6 be
       -0.926669 -0.28799358 -0.038578946 -0.32613945
000080 94 53 4f 3f 1b 2b 8d bf e8 a1 17 be 4b 40 2a 3f
       0.80986905 -1.102878 -0.14807856 0.66504353
000090 a0 61 a1 bd 87 cb 4a 3f 4a 01 1f 3e ba 19 b1 3e
       -0.078799486 0.7921681 0.15527835 0.3458994
0000a0 f2 a6 8d 3d a9 9f 16 3f d1 93 c0 bd 35 57 4f 3e
       0.06916608 0.5883737 -0.09403194 0.2024811
0000b0 b1 37 90 be 0b 64 e0 be e4 f1 af 3e a2 b9 a9 be
       -0.2816749 -0.43826327 0.34364235 -0.3314944
0000c0 5a cd 25 3f 3b 84 1e 3f 94 7e 8a bf 4c 25 cb bf
       0.64766467 0.6192052 -1.0819879 -1.5870757
0000d0 ac a2 37 bf 06 cc 0c bf e8 5e 82 bf b9 83 37 be
       -0.7173259 -0.54998815 -1.0185213 -0.17921342
0000e0 d8 05 9b bf f9 fa 11 3d 37 e1 80 bf f6 ba b8 bf
       -1.2111158 0.035639737 -1.006873 -1.4432056
0000f0 2b 8d 66 bf d1 7a 3e bf db f8 6f bf 63 a3 0d bf
       -0.90059155 -0.7440615 -0.937391 -0.55327433
000100 1c c0 ea bf 79 be 08 bf 08 9f 6f bf 7e 22 9b 3e
       -1.8339877 -0.5341564 -0.9360204 0.30299753
000110 99 81 c2 bf ff 34 9a bf 61 41 63 bf 7d 85 1b bf
       -1.51958 -1.2047423 -0.88771635 -0.6075056
000120 a0 4a 91 bf 76 08 9d 3e 58 64 8b bf 22 19 b8 bd
       -1.1350899 0.30670518 -1.0889997 -0.08989169
000130 53 7b 5d bd 40 ed cf be 8c 4b 9e bf f0 58 a4 bf
       -0.05407269 -0.40610695 -1.2366805 -1.2839642
